…
eval_neg_sample_args = {'strategy': 'by', 'by': 100, 'distribution': 'uniform'}


22 Mar 21:59    INFO  yelp
The number of users: 22846
Average actions of users: 10.374436419347779
The number of items: 16553
Average actions of items: 14.318753020782987
The number of inters: 237004
The sparsity of the dataset: 99.93732868775218%
Remain Fields: ['user_id', 'item_id', 'timestamp']
22 Mar 21:59    INFO  [Training]: train_batch_size = [256] negative sampling: [None]
22 Mar 21:59    INFO  [Evaluation]: eval_batch_size = [32] eval_args: [{'split': {'LS': 'valid_and_test'}, 'group_by': 'user', 'order': 'TO', 'mode': 'uni100'}]
22 Mar 21:59    INFO  CL4SRec(
  (item_embedding): Embedding(16554, 64, padding_idx=0)
  (position_embedding): Embedding(50, 64)
  (trm_encoder): TransformerEncoder(
    (layer): ModuleList(
      (0): TransformerLayer(
        (multi_head_attention): MultiHeadAttention(
          (query): Linear(in_features=64, out_features=64, bias=True)
          (key): Linear(in_features=64, out_features=64, bias=True)
          (value): Linear(in_features=64, out_features=64, bias=True)
          (softmax): Softmax(dim=-1)
          (attn_dropout): Dropout(p=0.25, inplace=False)
          (dense): Linear(in_features=64, out_features=64, bias=True)
          (LayerNorm): LayerNorm((64,), eps=1e-12, elementwise_affine=True)
          (out_dropout): Dropout(p=0.25, inplace=False)
        )
        (feed_forward): FeedForward(
          (dense_1): Linear(in_features=64, out_features=64, bias=True)
          (dense_2): Linear(in_features=64, out_features=64, bias=True)
          (LayerNorm): LayerNorm((64,), eps=1e-12, elementwise_affine=True)
          (dropout): Dropout(p=0.25, inplace=False)
        )
      )
      (1): TransformerLayer(
        (multi_head_attention): MultiHeadAttention(
          (query): Linear(in_features=64, out_features=64, bias=True)
          (key): Linear(in_features=64, out_features=64, bias=True)
          (value): Linear(in_features=64, out_features=64, bias=True)
          (softmax): Softmax(dim=-1)
          (attn_dropout): Dropout(p=0.25, inplace=False)
          (dense): Linear(in_features=64, out_features=64, bias=True)
          (LayerNorm): LayerNorm((64,), eps=1e-12, elementwise_affine=True)
          (out_dropout): Dropout(p=0.25, inplace=False)
        )
        (feed_forward): FeedForward(
          (dense_1): Linear(in_features=64, out_features=64, bias=True)
          (dense_2): Linear(in_features=64, out_features=64, bias=True)
          (LayerNorm): LayerNorm((64,), eps=1e-12, elementwise_affine=True)
          (dropout): Dropout(p=0.25, inplace=False)
        )
      )
    )
  )
  (LayerNorm): LayerNorm((64,), eps=1e-12, elementwise_affine=True)
  (dropout): Dropout(p=0.25, inplace=False)
  (loss_fct): CrossEntropyLoss()
  (nce_fct): CrossEntropyLoss()
)
Trainable parameters: 1113216
22 Mar 22:01    INFO  epoch 0 training [time: 150.53s, train loss: 6909.6322]
22 Mar 22:07    INFO  epoch 0 evaluating [time: 308.85s, valid_score: 0.264600]
22 Mar 22:07    INFO  valid result: 
recall@5 : 0.3217    recall@10 : 0.448    recall@20 : 0.5933    mrr@5 : 0.1916    mrr@10 : 0.2084    mrr@20 : 0.2184    ndcg@5 : 0.2238    ndcg@10 : 0.2646    ndcg@20 : 0.3012
…
