…
eval_neg_sample_args = {'strategy': 'by', 'by': 100, 'distribution': 'uniform'}


17 Mar 14:31    INFO  ML-1M
The number of users: 6041
Average actions of users: 44.65579470198676
The number of items: 3353
Average actions of items: 80.46569212410502
The number of inters: 269721
The sparsity of the dataset: 98.66840433694144%
Remain Fields: ['user_id', 'item_id', 'timestamp']
17 Mar 14:31    INFO  [Training]: train_batch_size = [256] negative sampling: [None]
17 Mar 14:31    INFO  [Evaluation]: eval_batch_size = [32] eval_args: [{'split': {'LS': 'valid_and_test'}, 'group_by': 'user', 'order': 'TO', 'mode': 'uni100'}]
17 Mar 14:31    INFO  CL4SRec(
  (item_embedding): Embedding(3354, 64, padding_idx=0)
  (position_embedding): Embedding(50, 64)
  (trm_encoder): TransformerEncoder(
    (layer): ModuleList(
      (0): TransformerLayer(
        (multi_head_attention): MultiHeadAttention(
          (query): Linear(in_features=64, out_features=64, bias=True)
          (key): Linear(in_features=64, out_features=64, bias=True)
          (value): Linear(in_features=64, out_features=64, bias=True)
          (softmax): Softmax(dim=-1)
          (attn_dropout): Dropout(p=0.25, inplace=False)
          (dense): Linear(in_features=64, out_features=64, bias=True)
          (LayerNorm): LayerNorm((64,), eps=1e-12, elementwise_affine=True)
          (out_dropout): Dropout(p=0.25, inplace=False)
        )
        (feed_forward): FeedForward(
          (dense_1): Linear(in_features=64, out_features=64, bias=True)
          (dense_2): Linear(in_features=64, out_features=64, bias=True)
          (LayerNorm): LayerNorm((64,), eps=1e-12, elementwise_affine=True)
          (dropout): Dropout(p=0.25, inplace=False)
        )
      )
      (1): TransformerLayer(
        (multi_head_attention): MultiHeadAttention(
          (query): Linear(in_features=64, out_features=64, bias=True)
          (key): Linear(in_features=64, out_features=64, bias=True)
          (value): Linear(in_features=64, out_features=64, bias=True)
          (softmax): Softmax(dim=-1)
          (attn_dropout): Dropout(p=0.25, inplace=False)
          (dense): Linear(in_features=64, out_features=64, bias=True)
          (LayerNorm): LayerNorm((64,), eps=1e-12, elementwise_affine=True)
          (out_dropout): Dropout(p=0.25, inplace=False)
        )
        (feed_forward): FeedForward(
          (dense_1): Linear(in_features=64, out_features=64, bias=True)
          (dense_2): Linear(in_features=64, out_features=64, bias=True)
          (LayerNorm): LayerNorm((64,), eps=1e-12, elementwise_affine=True)
          (dropout): Dropout(p=0.25, inplace=False)
        )
      )
    )
  )
  (LayerNorm): LayerNorm((64,), eps=1e-12, elementwise_affine=True)
  (dropout): Dropout(p=0.25, inplace=False)
  (loss_fct): CrossEntropyLoss()
  (nce_fct): CrossEntropyLoss()
)
Trainable parameters: 268416
17 Mar 14:34    INFO  epoch 0 training [time: 172.89s, train loss: 7849.2588]
17 Mar 14:35    INFO  epoch 0 evaluating [time: 58.00s, valid_score: 0.368200]
17 Mar 14:35    INFO  valid result: 
recall@5 : 0.4651    recall@10 : 0.6293    recall@20 : 0.7955    mrr@5 : 0.2654    mrr@10 : 0.2876    mrr@20 : 0.2992    ndcg@5 : 0.3149    ndcg@10 : 0.3682    ndcg@20 : 0.4103
…
