…
eval_neg_sample_args = {'strategy': 'by', 'by': 100, 'distribution': 'uniform'}


23 Mar 23:19    INFO  beauty
The number of users: 22364
Average actions of users: 8.705763985154048
The number of items: 12102
Average actions of items: 16.08850508222461
The number of inters: 194687
The sparsity of the dataset: 99.92806664427901%
Remain Fields: ['user_id', 'item_id', 'timestamp']
23 Mar 23:19    INFO  [Training]: train_batch_size = [256] negative sampling: [None]
23 Mar 23:19    INFO  [Evaluation]: eval_batch_size = [32] eval_args: [{'split': {'LS': 'valid_and_test'}, 'group_by': 'user', 'order': 'TO', 'mode': 'uni100'}]
23 Mar 23:19    INFO  CL4SRec(
  (item_embedding): Embedding(12103, 64, padding_idx=0)
  (position_embedding): Embedding(50, 64)
  (trm_encoder): TransformerEncoder(
    (layer): ModuleList(
      (0): TransformerLayer(
        (multi_head_attention): MultiHeadAttention(
          (query): Linear(in_features=64, out_features=64, bias=True)
          (key): Linear(in_features=64, out_features=64, bias=True)
          (value): Linear(in_features=64, out_features=64, bias=True)
          (softmax): Softmax(dim=-1)
          (attn_dropout): Dropout(p=0.25, inplace=False)
          (dense): Linear(in_features=64, out_features=64, bias=True)
          (LayerNorm): LayerNorm((64,), eps=1e-12, elementwise_affine=True)
          (out_dropout): Dropout(p=0.25, inplace=False)
        )
        (feed_forward): FeedForward(
          (dense_1): Linear(in_features=64, out_features=64, bias=True)
          (dense_2): Linear(in_features=64, out_features=64, bias=True)
          (LayerNorm): LayerNorm((64,), eps=1e-12, elementwise_affine=True)
          (dropout): Dropout(p=0.25, inplace=False)
        )
      )
      (1): TransformerLayer(
        (multi_head_attention): MultiHeadAttention(
          (query): Linear(in_features=64, out_features=64, bias=True)
          (key): Linear(in_features=64, out_features=64, bias=True)
          (value): Linear(in_features=64, out_features=64, bias=True)
          (softmax): Softmax(dim=-1)
          (attn_dropout): Dropout(p=0.25, inplace=False)
          (dense): Linear(in_features=64, out_features=64, bias=True)
          (LayerNorm): LayerNorm((64,), eps=1e-12, elementwise_affine=True)
          (out_dropout): Dropout(p=0.25, inplace=False)
        )
        (feed_forward): FeedForward(
          (dense_1): Linear(in_features=64, out_features=64, bias=True)
          (dense_2): Linear(in_features=64, out_features=64, bias=True)
          (LayerNorm): LayerNorm((64,), eps=1e-12, elementwise_affine=True)
          (dropout): Dropout(p=0.25, inplace=False)
        )
      )
    )
  )
  (LayerNorm): LayerNorm((64,), eps=1e-12, elementwise_affine=True)
  (dropout): Dropout(p=0.25, inplace=False)
  (loss_fct): CrossEntropyLoss()
  (nce_fct): CrossEntropyLoss()
)
Trainable parameters: 828352
23 Mar 23:21    INFO  epoch 0 training [time: 106.71s, train loss: 4909.3216]
23 Mar 23:25    INFO  epoch 0 evaluating [time: 282.16s, valid_score: 0.229500]
23 Mar 23:25    INFO  valid result: 
recall@5 : 0.2834    recall@10 : 0.387    recall@20 : 0.5162    mrr@5 : 0.1674    mrr@10 : 0.1812    mrr@20 : 0.19    ndcg@5 : 0.1961    ndcg@10 : 0.2295    ndcg@20 : 0.262
…
